cml/models/loan_default_best.pt (torch, 4594 bytes, 6 tensors)

net.0.weight f4 [16, 3]
00000000: 88c4 d13d 8ed1 0f3e c878 8d3e fac8 b03e
00000010: a840 ff3e e54f 853e b6d4 9e3e 000d 353e
00000020: 4839 b1bd eecc ca3e f2fc ca3d 31de 023f
00000030: ab9b 983e 38c3 c5bd 9bb5 c43e 43c4 843e
00000040: 8fe9 d23e b90d babe 2654 543e 09d0 9ebe
00000050: bc5b 66be a2ea 92be b49e c6be 4683 0fbf
00000060: 11d9 19be ba0a 733e 16f0 7abe c238 d3be
00000070: fe4f 0abf 564e 95be ab42 0dbf 0b47 0d3f
00000080: 848c b83e 7c6c e83e eb0c 093e 951b 2f3e
00000090: 72e1 943e b132 9a3e 9e18 bc3e d77d ebbe
000000a0: dfac fabe dab1 3d3e 00c9 d8bd 249b c23e
000000b0: e1ec 08bf a9f4 493e 4996 4a3d a375 c9be
0.102425635 0.14044783 0.2763121 0.34528333 0.49854016 0.26037517 0.3102166 0.1768074
-0.08653504 0.39609474 0.09911527 0.5112029 0.29806265 -0.09656376 0.38419804 0.25930986
0.41193816 -0.36338595 0.20735225 -0.31018093 -0.22495931 -0.28694636 -0.38792956 -0.5605968
-0.1502421 0.2373456 -0.24505648 -0.4125424 -0.5402831 -0.29161328 -0.5517985 0.5518653
0.36044705 0.45395267 0.13383834 0.17100365 0.2907825 0.301168 0.3673753 -0.45994446
-0.48960015 0.18524876 -0.10585213 0.38008988 -0.5348645 0.19722237 0.04945973 -0.39347562

net.0.bias f4 [16]
00000000: 0d30 0fbe b60e 793e 367b 90bc 1c74 03bf
00000010: d3c6 40be b714 643e 55e5 59bf 869b ccbe
00000020: 5670 d4bd 15e9 f7bc a529 9ebe 40f6 c13e
00000030: 7def fbbe fe2d 663e a8e0 5e3e 3aaa 983e
-0.13983174 0.24322018 -0.017636877 -0.51349044 -0.18825845 0.22273527 -0.8511556 -0.39962405
-0.10372989 -0.03026251 -0.30891147 0.37883186 -0.49206153 0.22478482 0.21765387 0.29817373

net.2.weight f4 [16, 16]
00000000: 44c6 353e c17f 43be 9627 203e 6bb7 2b3e
00000010: ef4b ebbd e919 f83d 5e7c 413e 2c0b 8ebd
00000020: f6a2 54be a855 133e fcca 1f3e b163 f3bc
00000030: 92c8 b4bd f806 c1bd 08d3 e3bd 0f54 acbd
00000040: d8fa 5cbe f36e 45be 92c6 523e 2255 7abd
00000050: 5120 593e 1f97 463e 069b dcbd c08f 50bd
00000060: f4a5 aebd 0ce6 7ebe 900a 0cbd 8790 38be
00000070: 3707 073d d4c9 083e ecff 7c3e d97a 013e
00000080: 6123 99be b95b 4eba 854c de3d 9974 50be
00000090: b2e4 8d3d 5d8e 1d3c e4fb 713d c2f2 033e
000000a0: 2cd4 6ebe 604d 5abd ba23 6a3e eb0f f83d
000000b0: 09e4 83bd 2013 26bc 3810 7fbe 5c55 043e
000000c0: c290 6cbe eeb0 04bd d201 54bd 9641 713e
000000d0: 08e9 4fbe 4897 193e 0cbf 86be e68d 503e
000000e0: a8e3 adbd b297 66be bc93 c33d f19e ed3d
000000f0: bcd2 e8bd 1677 79be f09b d73c f23b 1ebe
00000100: f43a 6abe 9444 cebd 18f6 aabd 5603 10be
00000110: 9060 86bd 8402 ed3d 88aa cfbd b0ed dd3c
00000120: 743d 2b3e c843 663d 3036 61be 9035 833c
00000130: 0053 feba 10bb 833c 9487 53be 5481 fabd
00000140: 5ec6 35be cd04 84bd b884 973d 2d5d ec3d
00000150: 50d1 613e a2c0 123e 3fc3 b2bc 000a 1cbe
00000160: 74ad 813d b0a7 be3c c0fd 433d dfe9 05be
00000170: 6d26 28be 28a2 083e e0e9 02be 7b2e 723c
00000180: 51e5 29be e11c b23d 483e f9bd 8f16 68be
00000190: 57a9 d0bc 5340 01be faf0 ff3d dc32 e6bd
000001a0: aa15 073e 34e5 11be b433 f0bd ec09 3a3e
000001b0: 3552 1fbc 349a c1bd a490 d03d 6a80 ff3c
000001c0: 00a9 bebd 1040 403d 943f 9cbd c0eb 843c
000001d0: 18ff 3b3e 8029 703d 189a b2bd 3885 323d
000001e0: 54be 28be c053 423c 30ca 173d eafb 72be
000001f0: 242e 1abe c27f 393e 10b2 6cbd 3090 e13c
00000200: 60a8 cb3d b0a0 ef3d e0ca 70be 5404 93bd
00000210: 78db a9bd 68cd 6cbe ac98 3c3e b204 26be
00000220: 5827 a1bd 3616 41be 0075 90bd 78db d43d
00000230: 1867 6abd 4679 523e a29e 273e 1051 bdbd
00000240: f0a6 493e debf 75be c24f 72be 5201 50be
00000250: 4c5c fe3d f454 c9bd ca8a 603e fc47 85bd
00000260: 0c91 98bd 04f7 e8bd 4077 61bd b0c8 91bc
00000270: 8c1f 343e 624d 4d3e 0890 19be 8cca 72be
00000280: 232b dfbd 9146 313e 8cb5 cb3d 7a84 123e
00000290: 79a9 213e ba81 45be a386 1b3e 9071 9f3d
000002a0: a082 733d 3a57 073e a043 ab3d 687f 82be
000002b0: 0590 4b3d 9c92 6e3e 1cf1 ffbd 2f38 2d3e
000002c0: 0038 cdbd 75c9 bb3c 2803 e1bd 3adc 383e
000002d0: e56b 3e3e bf27 55bd 0c3d cb3c 584d a6bd
000002e0: 2ac7 5d3e 40cf 8e3d e86b a53d f547 18be
000002f0: 380d 25bd 42f1 31be 32b2 16be d2e3 443e
00000300: a8a4 253d c52b 9c3d c42a 2cbe 78f8 453e
00000310: f76a 4e3e fea7 34be ab59 90bd e85f b53d
00000320: 6c21 0fbe 0009 cfbb b8c3 553e 5f96 b33d
00000330: a62b 52bd e0a5 e1bc 3453 91bd da8a 06be
00000340: 80dd 713e 1429 c4bd b0c4 17bd c0e7 973c
00000350: 3edd 25be 868a 5e3e 8882 0dbd 1036 02be
00000360: 988b 323d a4f7 1e3e aa71 083e c6c7 5ebe
00000370: 9422 3b3e 4add 2ebe e8c4 e33d b0c4 2bbd
00000380: 6ee2 403e a8b8 39bd 20e6 c93c beb2 2abe
00000390: 46a6 5fbe 8c6c 3abe 5293 7f3e f41f 39be
000003a0: 10a0 e23c 9497 563e 322c 3b3e e26e 183e
000003b0: e034 063d d080 463d d470 4d3e 68ea 4f3d
000003c0: 2767 c53d 47c9 313d 277b 77be e0e6 373e
000003d0: cc0b 80bd 5b6b d8bd a368 8d3c 7033 a9bc
000003e0: aafd 0f3e 381d 1e3d f0de 4b3e 30f9 d4bd
000003f0: 84ec e03d 4007 a8bb 000b e83a e334 943d
0.17751414 -0.19091703 0.15640101 0.16769187 -0.114890926 0.12114317 0.18895099 -0.069357246
-0.2076529 0.14388144 0.15604776 -0.029710623 -0.08827318 -0.09425157 -0.111242354 -0.084144704
-0.21580064 -0.19280605 0.20583561 -0.061116345 0.21203734 0.19393586 -0.10771756 -0.05091834
-0.08527747 -0.24892443 -0.03418976 -0.18023883 0.032965865 0.13358241 0.24707001 0.12644519
-0.29909804 -0.0007871944 0.10854439 -0.20356978 0.06928386 0.009616462 0.059078112 0.12885574
-0.23323125 -0.053296447 0.22865191 0.12112411 -0.06439979 -0.010136396 -0.2490853 0.12923187
-0.23102096 -0.032395296 -0.05175955 0.23560175 -0.20303738 0.14999115 -0.26317632 0.2036663
-0.084906876 -0.22518805 0.095496625 0.11602581 -0.113683194 -0.24361834 0.026319474 -0.15452555
-0.22874051 -0.10071674 -0.0834772 -0.14063773 -0.065613866 0.115727454 -0.10139948 0.027090877
0.16722661 0.056216985 -0.21993327 0.016016752 -0.0019403398 0.01608041 -0.20657188 -0.12231699
-0.17751452 -0.06446228 0.07398361 0.11541209 0.22052503 0.14331296 -0.021821616 -0.1523819
0.06331912 0.023273319 0.047849417 -0.13077496 -0.16420908 0.13343108 -0.12784529 0.01478159
-0.16591384 0.086969145 -0.12170082 -0.22664855 -0.025471373 -0.12622194 0.124971345 -0.112401694
0.13191858 -0.1424759 -0.117286116 0.18167847 -0.0097241895 -0.0945324 0.10183838 0.031189162
-0.09309578 0.046936095 -0.07629314 0.016225696 0.1835903 0.058633327 -0.08720797 0.04358408
-0.16478854 0.011860788 0.037058055 -0.2372891 -0.15056664 0.18115142 -0.057787 0.027534574
0.09944224 0.117005706 -0.2351489 -0.0717856 -0.082938135 -0.23125231 0.18417615 -0.16212729
-0.07868832 -0.18856129 -0.07053566 0.10393423 -0.057227224 0.20554075 0.16369107 -0.09243977
0.19692588 -0.23998973 -0.23663238 -0.20313004 0.12419948 -0.09830657 0.21927944 -0.065078706
-0.074495405 -0.113752395 -0.055045366 -0.01779589 0.17590159 0.2004905 -0.1499635 -0.23710078
-0.108968996 0.17312075 0.09946737 0.14308348 0.15787305 -0.19287768 0.15188079 0.07785332
0.059450746 0.13216868 0.08362508 -0.25487828 0.049697895 0.23298115 -0.1249716 0.16915964
-0.10020447 0.02292321 -0.1098693 0.1805276 0.18595846 -0.052039858 0.024809383 -0.08120221
0.21658006 0.069731236 0.08077222 -0.148712 -0.04029581 -0.17377189 -0.14716414 0.19227532
0.04044023 0.07625536 -0.16813189 0.19333065 0.20157991 -0.17642209 -0.07048353 0.08856183
-0.13977593 -0.0063182116 0.20875442 0.087689154 -0.051311158 -0.027544916 -0.07095948 -0.13138905
0.23619652 -0.095781475 -0.03705281 0.018543124 -0.16197678 0.2173253 -0.034548312 -0.12715936
0.04359016 0.15524155 0.1332461 -0.21755895 0.1827491 -0.17076603 0.11121541 -0.041935623
0.18836376 -0.045342118 0.024645865 -0.16669747 -0.21840772 -0.1820547 0.24958542 -0.18078595
0.027664214 0.2095626 0.18278578 0.14886048 0.03276527 0.04846269 0.20062572 0.050760657
0.096388154 0.043404844 -0.24168073 0.17959166 -0.0625225 -0.105673514 0.017261809 -0.02065441
0.14061609 0.038602084 0.19909263 -0.10399091 0.10982612 -0.0051278174 0.0017703474 0.0723665

net.2.bias f4 [16]
00000000: a3d1 25bc 909b 59be b87f 73be 28b8 0ebd
00000010: 801c 943b ad40 013e bb35 74be e8c1 43bd
00000020: b031 6fbd 4098 883b 38df 683d fc18 013e
00000030: 69e5 4a3e 2295 6f3e ca32 113e 5455 c3bd
-0.010120782 -0.21250749 -0.2377919 -0.034843594 0.004519999 0.12622328 -0.23848622 -0.047792345
-0.058396995 0.0041685402 0.056853503 0.12607187 0.19814076 0.23396733 0.1417953 -0.095377594

net.4.weight f4 [4, 16]
00000000: 7259 26be cfb1 d83c b173 80bd 65ce 50be
00000010: 40a4 aebb aef7 34bd 49e3 8b3d 36e4 363e
00000020: c845 013d e4f6 39be d12a 223d d092 0a3e
00000030: 24ad ed3b d06d e8bd 80f6 073c 7155 9fbd
00000040: 0774 dfbb b948 46be 6871 2e3a 87b3 42bd
00000050: 4079 843d 7474 2c3e 2b46 0abe 5c66 c4bd
00000060: c84a 14bd 6843 293d cbcc 1bbe ce67 183d
00000070: bde1 343e ea9a 723e 0c7a 783e 7abb b9bd
00000080: 48d9 103e 47de 053e 33bd 803c 4bdd 22be
00000090: a2af 13be f5b0 9d3d 9e4c 223e 1862 953d
000000a0: 6633 103e 809f fabc e7c7 11be 4c93 30be
000000b0: d8d0 653e b49a 413e d850 33be fce1 94bd
000000c0: c1b4 1abd 8699 5fbe e554 77bb df4a bdbd
000000d0: 5a0b 49be 770e 4dbd 3893 463e b4c5 aebd
000000e0: 1243 6b3e b0a5 4a3e d705 87bb 7b3c 80bd
000000f0: cef4 db3d 90f5 2dbd 1665 49be 1ad9 a2bd
-0.16245058 0.026451973 -0.062720664 -0.20391233 -0.0053296387 -0.04418152 0.068304606 0.17860493
0.03156069 -0.18160588 0.039591614 0.13532567 0.007253306 -0.1134907 0.008298516 -0.077799685
-0.0068192515 -0.19363679 0.0006654472 -0.047534492 0.06468439 0.16841298 -0.1350333 -0.09589836
-0.03620413 0.04132405 -0.15214841 0.03720837 0.17664237 0.23691908 0.24265307 -0.090689614
0.14145386 0.13073073 0.015715217 -0.15904729 -0.14422467 0.076997675 0.1584954 0.072941005
0.14082107 -0.030593634 -0.14236413 -0.1724369 0.22442949 0.18906671 -0.17511308 -0.072696656
-0.037770037 -0.21835908 -0.003773981 -0.09242796 -0.19633237 -0.050062623 0.19392097 -0.08533803
0.22974804 0.19789767 -0.004120569 -0.06261536 0.10740052 -0.042470515 -0.19667467 -0.07951565

net.4.bias f4 [4]
00000000: 203c 3bbe 946d 1a3d 46f9 f5bd a77e 34be
-0.18284655 0.037702158 -0.12010436 -0.17626439
