cml/models/loan_default_model_run_2.pt (torch, 8242 bytes, 6 tensors)

net.0.weight f4 [32, 3]
0	0xbf12d370	-0.5735388
1	0xbf121a7e	-0.57071674
2	0x3edc8d97	0.43076774
3	0x3eebebee	0.46078438
4	0x3ed00602	0.40629584
5	0x3ecd6c99	0.40121916
6	0x3e07488f	0.13211273
7	0xbdec425f	-0.11536097
8	0x3e0bd926	0.13657054
9	0x3e1aeb6c	0.15128869
10	0xbed87c2b	-0.42282233
11	0x3e64b0d5	0.22333081
12	0xbde1fab6	-0.110341474
13	0x3efe0936	0.49616402
14	0x3e60836f	0.21925138
15	0xbeed2839	-0.4631975
16	0x3ed9d12a	0.42542392
17	0xbeb4111b	-0.351693
18	0xbf04aaeb	-0.518233
19	0xbeaeb86f	-0.34125087
20	0xbde078ae	-0.10960518
21	0xbc0974f3	-0.008389699
22	0x3e914988	0.28376412
23	0x3f110a70	0.5665655
24	0xbe91a187	-0.28443548
25	0xbe37521d	-0.17902417
26	0xbf071401	-0.527649
27	0x3d9a7ce5	0.07543353
28	0x3e58a7e6	0.21157798
29	0xbd1b731b	-0.03795157
30	0xbdf291aa	-0.118441895
31	0xbf0460da	-0.51710284
32	0xbefb509a	-0.49084932
33	0xbe760780	-0.24026299
34	0xbf077993	-0.5291988
35	0x3e834c77	0.25644276
36	0xbec978e6	-0.3935005
37	0xbf09714a	-0.5368849
38	0x3ee78add	0.45223132
39	0xbd590d58	-0.05299124
40	0x3db6462b	0.08900102
41	0xbe90e17a	-0.28297025
42	0xbe79059c	-0.24318546
43	0x3c3cc1e8	0.01152084
44	0x3eb4e93e	0.353342
45	0xbf0187d6	-0.50597894
46	0xbe9e1e43	-0.30882463
47	0x3eb7991a	0.35858995
48	0xbec0131e	-0.37514585
49	0x3f107238	0.56424284
50	0xbee0b94a	-0.43891364
51	0xbdb98b38	-0.09059757
52	0x3e86a0d8	0.2629459
53	0x3eca6836	0.39532632
54	0xbe8a4ae9	-0.27010277
55	0x3dfcd64e	0.12345563
56	0xbe859858	-0.26092792
57	0xbc907e3f	-0.017638324
58	0xbf06a752	-0.5259906
59	0x3e497b60	0.1967597
60	0x3e9f91ca	0.31165916
61	0xbeb3683f	-0.3504047
62	0xbf15e334	-0.5854981
63	0x3e509b19	0.20371665
64	0x3e1154fc	0.14192575
65	0xbeef1b25	-0.46700397
66	0x3e72a240	0.23694706
67	0xbe0ae29c	-0.13563007
68	0xbf0a36f3	-0.53990096
69	0xbea7c6e6	-0.32768935
70	0x3e9581f7	0.29200718
71	0x3e8e0e48	0.2774527
72	0xbf0c11aa	-0.54714453
73	0x3de9cb85	0.114157714
74	0x3edc0cb2	0.42978436
75	0x3f0912c9	0.5354429
76	0xbeb6292c	-0.35578287
77	0x3ea531c1	0.32264522
78	0xbf012732	-0.5045043
79	0xbee64e71	-0.4498172
80	0xbe2583cf	-0.16163562
81	0xbee235f9	-0.44181803
82	0x3ea04e87	0.31309912
83	0x3f13b2ac	0.57694507
84	0x3e8208b2	0.2539726
85	0x3e91a258	0.2844417
86	0xbd1b9f28	-0.03799358
87	0xbea86150	-0.32886744
88	0xbe8ce044	-0.2751485
89	0xbeae7d3b	-0.34079918
90	0xbc8e20e7	-0.017349673
91	0xbd87a61a	-0.06623478
92	0xbecaa09a	-0.39575654
93	0x3eb7fef6	0.35936707
94	0xbf0ee9a5	-0.55825263
95	0x3ea42e4d	0.32066575

net.0.bias f4 [32]
0	0x3e8529b1	0.2600837
1	0x3ecc9872	0.39960057
2	0xbea066cc	-0.31328428
3	0xbd08ad80	-0.033368587
4	0x3db579e5	0.0886114
5	0xbeeff8af	-0.46869418
6	0x3e05d49d	0.13069387
7	0xbeb419ba	-0.35175878
8	0x3e8a0051	0.26953366
9	0xbdad8f54	-0.08474603
10	0x3f03cec4	0.51487374
11	0x3f12c95f	0.5733852
12	0x3f073e33	0.52829283
13	0xbed11712	-0.40837914
14	0xbd45c2fa	-0.048281647
15	0xbd2133c5	-0.039356012
16	0x3ead9231	0.33900598
17	0x3e9169b7	0.28400967
18	0xbea8b1a3	-0.32948026
19	0xbea561a3	-0.32301053
20	0xbebda545	-0.37040153
21	0x3e412bc8	0.18864357
22	0x3ea45132	0.32093197
23	0x3f0b7d9a	0.5448853
24	0xbf011696	-0.5042509
25	0x3e32029c	0.17383808
26	0x3d923e22	0.07140757
27	0xbef871f1	-0.4852443
28	0xbe06bb3d	-0.13157363
29	0xbe902170	-0.2815051
30	0x3e99b49a	0.300206
31	0xbea14d68	-0.3150437

net.2.weight f4 [32, 32]
0	0xbd806ce0	-0.06270766
1	0xbc8a4c66	-0.016882133
2	0x3defd933	0.11711349
3	0x3d976396	0.073920414
4	0x3d798d7c	0.060925946
5	0xbc61360a	-0.013745794
6	0xbe0f3d15	-0.13988145
7	0x3c608683	0.013703945
8	0x3d8d3b9b	0.068961345
9	0x3cc3fc4d	0.023924017
10	0xbde81e01	-0.11333848
11	0xbdd6f0d7	-0.10495155
12	0xbd91b34f	-0.071142785
13	0xbc758c61	-0.014987082
14	0xbd929fb4	-0.07159367
15	0x3e1c442b	0.15260379
16	0x3d1f0045	0.038818616
17	0xbe0d5ab5	-0.13804133
18	0xbd07b12c	-0.03312795
19	0x3c81a52e	0.015825834
20	0x3bf63a00	0.0075142384
21	0x3df4aacb	0.11946639
22	0x3e0ad878	0.13559139
23	0x3dc16562	0.09443165
24	0xbbab91f0	-0.005235903
25	0xbbbd78ca	-0.0057822214
26	0x3d444f29	0.047927056
27	0x3c118838	0.008882575
28	0xbdf2b369	-0.11850626
29	0xbdd74ff2	-0.10513295
30	0xbd3e4ff7	-0.04646298
31	0xbdff0457	-0.12452
32	0x3e287911	0.16452433
33	0xbdcc664a	-0.099804476
34	0xbba42d5e	-0.005010291
35	0xbd1bb374	-0.038012937
36	0x3e0a338d	0.13496228
37	0xbc634612	-0.0138716865
38	0x3e1aea23	0.15128379
39	0xbe1317e5	-0.14364584
40	0xbd86797b	-0.06566139
41	0xbc966d58	-0.018362686
42	0x3ccb776e	0.024837222
43	0x3c42e399	0.011895084
44	0xbe05136c	-0.1299569
45	0x3c78f21e	0.015194444
46	0x3e227729	0.15865768
47	0xbb3c955c	-0.0028775549
48	0x3e2bb283	0.16767316
49	0xbdc28f8d	-0.095000364
50	0xbd82a93c	-0.06379935
51	0xbe19151a	-0.14949456
52	0xbe266854	-0.16250736
53	0xbded65ba	-0.115916684
54	0xbdd455cb	-0.10367926
55	0x3df56a6d	0.1198319
56	0x3d27fe91	0.041014258
57	0xbda62881	-0.08113194
58	0xbe1fd6e0	-0.15609312
59	0xbd2d9740	-0.04238057
60	0xbe1656ab	-0.14681499
61	0xbdbbd348	-0.09171158
62	0x3c7b36eb	0.015332918
63	0xbe11ca3d	-0.14237304
64	0xbdccaf4f	-0.09994375
65	0xbe1b2980	-0.1515255
66	0x3b0dc16d	0.0021630183
67	0xbddc419c	-0.107547015
68	0x3e0db265	0.13837583
69	0xbdb06c20	-0.08614373
70	0xbd2344d7	-0.039860573
71	0xbe172635	-0.14760669
72	0x3da3c3c1	0.079963215
73	0xbdc5b774	-0.096541315
74	0x3dce9859	0.10087652
75	0x3da2256c	0.07917294
76	0x3e21ac04	0.15788275
77	0xbdfa311a	-0.12216397
78	0xbd6cd827	-0.057823326
79	0xbce728b4	-0.028217651
80	0x3df8f14a	0.12155397
81	0x3e1149b5	0.14188273
82	0x3e31b989	0.17355932
83	0xbd9abf53	-0.075560234
84	0x3df46a99	0.119343944
85	0x3e24e46f	0.16102766
86	0xbe05e610	-0.13076043
87	0xbcf9fc09	-0.030515688
88	0x3e0f791a	0.1401104
89	0x3d16b151	0.036790196
90	0x3e1ae929	0.15128006
91	0x3e079fc7	0.13244544
92	0xbe23b7ed	-0.15988131
93	0xbda7f75f	-0.08201479
94	0xbdc44513	-0.09583487
95	0xbe0696ed	-0.13143511
96	0xbdcf58bd	-0.10124347
97	0x3bbb39ca	0.005713676
98	0xbd36a86c	-0.044594213
99	0xbe3f6609	-0.18691267
100	0x3c9471bb	0.018120637
101	0x3cadd2ce	0.021218684
102	0x3dfbab53	0.12288537
103	0x3d65d3a7	0.05611005
104	0xbe0bccb5	-0.13652308
105	0xbe489751	-0.19588973
106	0xbe2f2006	-0.1710206
107	0xbd8b8c35	-0.06813852
108	0xbd1d3bad	-0.03838699
109	0xbc8e4904	-0.017368801
110	0xbe084933	-0.13309173
111	0x3dca8955	0.09889475
112	0x3e1f3857	0.15548836
113	0x3e242d26	0.16032848
114	0x3d0360f5	0.032074887
115	0xbe064917	-0.13113819
116	0x3da8b47f	0.08237552
117	0xbc5fec01	-0.013667108
118	0x3daa45c3	0.08314087
119	0xbdc363d9	-0.09540529
120	0xbe039c21	-0.12852527
121	0x3e025aea	0.12729993
122	0x3e0744b8	0.13209808
123	0x3d2b4fe9	0.041824255
124	0xbd82ed37	-0.063929014
125	0x3d8a424f	0.067509286
126	0xbe18d296	-0.14924082
127	0xbe2ed414	-0.17073089
128	0x3dcb002f	0.099121444
129	0x3dcda1ee	0.10040651
130	0x3e1c6529	0.15272965
131	0x3da9ff1c	0.083006114
132	0x3d9777db	0.073959075
133	0xbd084725	-0.033270974
134	0xbe327bed	-0.17430086
135	0xbdf656b1	-0.12028254
136	0xbd82a728	-0.06379539
137	0xbd5e5a70	-0.054285467
138	0xbe10c035	-0.14135821
139	0x3da8fb4d	0.08251057
140	0xbe15d263	-0.14631037
141	0x3e281e65	0.16417845
142	0x3e17835a	0.147962
143	0x3ddd4551	0.10804237
144	0x3da85831	0.08219946
145	0x3cd116e1	0.025523605
146	0xbca481a5	-0.02008135
147	0xbda093b4	-0.07840672
148	0xbe132f40	-0.14373493
149	0x3c17436c	0.009232383
150	0xbd99d5d4	-0.075114876
151	0xbd7cbf95	-0.061706144
152	0xbbaf0901	-0.0053416495
153	0xbdc85589	-0.097819395
154	0xbd8050de	-0.06265424
155	0xbc09544a	-0.0083819125
156	0x3d8e6d64	0.06954458
157	0x3e15675e	0.14590213
158	0xbcdf1d20	-0.027235568
159	0x3cd74bdc	0.02628129
160	0xbe328847	-0.17434798
161	0xbe2c72a2	-0.16840604
162	0x3d59d6cd	0.053183366
163	0x3e1de057	0.1541761
164	0xbdcd10a5	-0.1001294
165	0x3d8e7e2e	0.069576606
166	0x3bcb513f	0.0062047536
167	0xbdc9a330	-0.09845579
168	0x3db5052e	0.088388786
169	0xbd33f0b1	-0.043930713
170	0x3e0266b4	0.1273449
171	0xbd454fe3	-0.04817189
172	0xbd6231ba	-0.055223204
173	0xbbab89a1	-0.0052349125
174	0xbd2161c0	-0.039399862
175	0x3d1da1a2	0.038484223
176	0x3e287ed4	0.16454631
177	0xbe13b8a2	-0.144259
178	0xbe200a72	-0.15628985
179	0xbda726ab	-0.08161672
180	0xbd203323	-0.039111268
181	0x3dbe563e	0.09293793
182	0xbd2eccde	-0.042675845
183	0xbe2c8822	-0.16848806
184	0xbe187c07	-0.14891063
185	0x3dae586e	0.085129604
186	0xbe0a883c	-0.13528532
187	0x3e003a17	0.1252216
188	0x3ca20614	0.019778289
189	0xbdd9019f	-0.10596012
190	0x3d1b445a	0.037906982
191	0xbaa7b144	-0.0012793918
192	0x3ad31b77	0.0016106208
193	0xbbae1eb0	-0.005313717
194	0xbdd2e470	-0.10297477
195	0xbe0b7e03	-0.13622288
196	0xbdd7c83e	-0.1053624
197	0x3d3e1b71	0.04641289
198	0xbcbe7895	-0.023250857
199	0x3d5be478	0.05368468
200	0xbdae68a2	-0.08516051
201	0xbe09dc16	-0.13462862
202	0x3e04ff9e	0.12988135
203	0x3e207c8b	0.1567251
204	0xbd865bf6	-0.06560509
205	0xbe0c3e22	-0.13695577
206	0x3d84c8f7	0.064836435
207	0xbde1f793	-0.11033549
208	0xbdfbcf3f	-0.122953884
209	0xbe133caa	-0.1437861
210	0xbdf6302f	-0.12020909
211	0x3dc22e6f	0.09481513
212	0x3d2574fe	0.040394776
213	0x3da67d30	0.08129346
214	0xbde4d5cf	-0.11173593
215	0x3e0add47	0.13560973
216	0xbca72636	-0.020403963
217	0x3dd8a4e1	0.10578323
218	0xbe165765	-0.14681776
219	0x3e018515	0.12648423
220	0xbdd0d176	-0.101962015
221	0xbe214bda	-0.15751591
222	0xbe15661e	-0.14589736
223	0xbceb64f3	-0.02873466
224	0x3cd4d3c5	0.025979886
225	0xbe277e34	-0.16356736
226	0x3c9ba11d	0.018997723
227	0x3dec2d5e	0.115320906
228	0xbda99ef4	-0.08282271
229	0xbda33bd0	-0.07970393
230	0xbe30e598	-0.17275083
231	0x3e0c46f8	0.13698947
232	0x3d81840a	0.063240126
233	0xbd1a53dd	-0.037677635
234	0x3d65a536	0.05606576
235	0xbda676aa	-0.08128102
236	0x3df3b67c	0.119000405
237	0x3e19f733	0.15035705
238	0xbe0fc0a5	-0.14038332
239	0xbc64d224	-0.013966117
240	0xbdf367c3	-0.11885025
241	0x3daaca88	0.08339411
242	0xbdd0d981	-0.101977356
243	0x3dc0bcf2	0.094110385
244	0x3ce4c609	0.027926462
245	0x3d8e1951	0.069384225
246	0xbd11c1e8	-0.035585314
247	0x3c37b3d1	0.011212305
248	0xbdd605d3	-0.1045033
249	0x3d4c1a84	0.049829975
250	0xbdd772e1	-0.10519958
251	0xbc83831f	-0.016053734
252	0xbdb029f7	-0.08601754
253	0x3d6c183d	0.057640303
254	0x3e0d68df	0.13809536
255	0x3dc15237	0.09439509

net.2.bias f4 [32]
0	0x3dbd362c	0.09238848
1	0xbe210a12	-0.15726498
2	0x3db84a35	0.08998529
3	0xbe594ea7	-0.2122141
4	0x3df2a825	0.11848477
5	0x3ba94579	0.0051657525
6	0xbe225403	-0.1585236
7	0xb9eb17a5	-0.0004484031
8	0xbdbb7285	-0.09152702
9	0x3d672964	0.056435958
10	0xbcdbd0f5	-0.026833037
11	0xbdbf5fce	-0.09344445
12	0xbe5b351a	-0.21406975
13	0xbd5ca367	-0.05386677
14	0x3d84dc4d	0.064873315
15	0x3b8be8d5	0.004269699
16	0xbd07d148	-0.03315857
17	0xbe096bc4	-0.13420016
18	0x3d4e42de	0.05035674
19	0xbd8e5636	-0.06950037
20	0xbe1f91c0	-0.15582943
21	0x3dca766b	0.09885868
22	0xbd984c86	-0.07436471
23	0x3d7ffed5	0.062498886
24	0x3e19e945	0.15030392
25	0x3e16ee1c	0.14739269
26	0xbe32e5ca	-0.1747047
27	0x3cb18c84	0.021673448
28	0xbdca8655	-0.09888903
29	0xbe0cf751	-0.13766219
30	0xbc8269fc	-0.015919678
31	0xbd96f949	-0.07371766

net.4.weight f4 [4, 32]
0	0xbdd99050	-0.106232285
1	0xbcafbbfd	-0.021451944
2	0x3c8c3fa8	0.017120197
3	0x3c77e03b	0.015129144
4	0x3d3b5221	0.04573262
5	0xbdb03d95	-0.08605496
6	0x3d98f08c	0.07467756
7	0xbadeb326	-0.0016990646
8	0xbd408a6d	-0.047007013
9	0x3d5be279	0.053682778
10	0x3dd22917	0.102617435
11	0x3d68c334	0.056826785
12	0xbd40a618	-0.0470334
13	0x3dd80bc5	0.1054912
14	0xbbcbf277	-0.0062239724
15	0xbd92b706	-0.07163815
16	0x3dbf6110	0.09344685
17	0x3c0f1c43	0.008734765
18	0xbbb717cf	-0.005587555
19	0x3d3cfebd	0.046141375
20	0xbbaad79d	-0.0052136914
21	0x3cada63a	0.021197427
22	0xbdb1378f	-0.08653175
23	0x3dbd285d	0.09236214
24	0x3e31ef33	0.17376404
25	0x3d0807f3	0.033210706
26	0xbdb92f86	-0.090422675
27	0xbc2bebeb	-0.010493259
28	0x3c11bbb8	0.008894853
29	0xbdb7aca8	-0.089684784
30	0x3dd95748	0.10612351
31	0xbb9a9568	-0.0047175176
32	0xbd7453aa	-0.0596501
33	0xbddbe232	-0.10736503
34	0xbd5b83b3	-0.053592395
35	0x3bf99dd8	0.0076176934
36	0x3ce183df	0.027528701
37	0x3c14e9ab	0.009088914
38	0x3d9c2612	0.07624449
39	0x3d1b65bc	0.03793882
40	0xbdb7e0a6	-0.08978395
41	0x3cdf0389	0.027223365
42	0xbca7e8e2	-0.02049679
43	0x3db37856	0.08763187
44	0xbdc29354	-0.09500757
45	0x3d833fb4	0.06408635
46	0x3e2a8220	0.16651201
47	0xbcaa910a	-0.020821113
48	0x3df7e36e	0.12103926
49	0x3e1737b8	0.14767349
50	0x3db77301	0.08957482
51	0x3d41f3fc	0.047351822
52	0xbe10b77a	-0.14132491
53	0xbd70afbe	-0.05876135
54	0x3db69324	0.089147836
55	0x3e0e5e89	0.1390325
56	0xbb2d501f	-0.002644546
57	0xbd95b922	-0.07310702
58	0xbdefb350	-0.11704123
59	0xbdc07988	-0.0939818
60	0xbdb19657	-0.08671253
61	0x3e1e541b	0.15461771
62	0x3d83f514	0.06443229
63	0xbe2824ac	-0.16420239
64	0xbdacdfcf	-0.084411256
65	0x3d8aa5a5	0.067698754
66	0x3d301625	0.04298987
67	0x3c68edee	0.014216883
68	0x3d491e07	0.049100902
69	0xbd082ab1	-0.03324384
70	0x3da7e5c6	0.08198123
71	0x3cc7ea09	0.024403589
72	0xbdb2872c	-0.08717188
73	0xbd38bf31	-0.04510421
74	0x3da4386b	0.080185734
75	0x3dca33e3	0.09873178
76	0xbd995245	-0.07486395
77	0x3e0c049b	0.13673632
78	0x3dc5ab96	0.09651868
79	0xbd21eb1d	-0.039530862
80	0xbdfd3738	-0.12364048
81	0xbe1a3b6b	-0.15061729
82	0xbe2b05ac	-0.16701382
83	0x3d44d116	0.048050962
84	0x3cbc5e4c	0.022994183
85	0xbd3a9765	-0.045554537
86	0xbdb21c9a	-0.086968616
87	0xbe0e6cf3	-0.13908748
88	0x3dc74558	0.09730023
89	0x3e0c712d	0.13715048
90	0xbd97d0b1	-0.074128516
91	0xbd075df4	-0.033048585
92	0xbd562ff3	-0.05229182
93	0xbe31557f	-0.1731777
94	0x3db54607	0.08851247
95	0x3e1e7864	0.15475613
96	0xbdbf7e3f	-0.093502514
97	0x3c94f51e	0.018183287
98	0xbdd4eed1	-0.10397113
99	0x3c9d47cf	0.01919928
100	0xb970f656	-0.00022979951
101	0xbd897781	-0.06712247
102	0x3d96fe2c	0.07372698
103	0x3ca5b142	0.020226125
104	0xbca6b064	-0.020347781
105	0xbd90fb8a	-0.07079227
106	0x3cfa31db	0.030541351
107	0x3db92974	0.0904111
108	0xbd8d7b33	-0.06908264
109	0x3d4d6e23	0.050153863
110	0x3d167f11	0.036742274
111	0xbd622c0c	-0.055217788
112	0xbe1bcd2a	-0.15214983
113	0xbe313a6c	-0.17307442
114	0x3de12698	0.10993689
115	0x3d20c055	0.039245922
116	0x3dfe9b75	0.12431995
117	0x3b055857	0.0020346844
118	0x3b5c72b3	0.0033637702
119	0xbc723566	-0.014783239
120	0xbd9b4550	-0.0758158
121	0x3e1b5ae4	0.15171391
122	0xbdec562b	-0.11539873
123	0x3da702ab	0.08154806
124	0xbd068512	-0.03284175
125	0x3d7dc4ed	0.06195538
126	0x3db0ddbf	0.08636045
127	0x3d46155e	0.04836022

net.4.bias f4 [4]
0	0x3d8ef842	0.06980945
1	0x3d9e92a8	0.07742816
2	0x3dbaa292	0.09113039
3	0x3d967de0	0.073482275
