cml/models/loan_default_model_run_0.pt (torch, 4594 bytes, 6 tensors)

net.0.weight f4 [16, 3]
0.25591996 -0.21423459 -0.30762988 -0.24430008 0.41973138 -0.019748243 -0.335771 -0.21229222
-0.13287048 -0.08389885 -0.5615596 0.5283777 -0.35647026 -0.22494993 -0.025770681 -0.41301805
-0.5600745 0.1660103 -0.4294741 -0.51241213 0.039350986 0.32527906 -0.13717812 -0.42878258
0.18233137 -0.80317914 -0.5774716 -0.5133241 0.5642 0.102997035 -0.24504857 0.53751683
-0.22111538 0.35431698 0.03807841 0.47962946 0.1502122 0.11131138 0.39579913 -0.52850986
-0.12883084 0.04970916 -0.00017968868 -0.55086815 -0.017068459 0.34721553 -0.23456657 0.18790737
00000000: f107 833e 5060 5bbe aa81 9dbe cd29 7abe
00000010: 08e7 d63e 11c7 a1bc 2dea abbe 2263 59be
00000020: 330f 08be 29d3 abbd 5fc2 0fbf c343 073f
00000030: 4583 b6be 4659 66be 091d d3bc 1a77 d3be
00000040: 0b61 0fbf 9bfe 293e 07e4 dbbe 712d 03bf
00000050: 802e 213d fa8a a63e 6c78 0cbe 6489 dbbe
00000060: 13b5 3a3e 269d 4dbf 2ed5 13bf 3569 03bf
00000070: 696f 103f 1cf0 d23d 03ee 7abe b49a 093f
00000080: 126c 62be 0969 b53e 1bf8 1b3d fe91 f53e
00000090: 3ad1 193e 39f7 e33d 2fa6 ca3e 6c4c 07bf
000000a0: 3bec 03be d59b 4b3d d06a 3cb9 b205 0dbf
000000b0: 27d3 8bbc 3cc6 b13e 3832 70be ca6a 403e

net.0.bias f4 [16]
0.22758727 0.46706626 -0.17658019 -0.14923382 0.0051473225 -0.15665884 0.3184521 -0.69101626
-0.5773792 0.35749066 -0.43217847 0.01666043 0.013704685 -0.35154566 0.08693385 0.2273523
00000000: a30c 693e 4f23 ef3e 70d1 34be c0d0 18be
00000010: dfaa a83b 2d6b 20be 270c a33e 71e6 30bf
00000020: 20cf 13bf 0409 b73e 7f46 ddbe 747b 883c
00000030: 9d89 603c cbfd b3be 600a b23d 0bcf 683e

net.2.weight f4 [16, 16]
0.18702053 0.0038238466 0.08013019 0.09501618 0.031161994 0.099071145 0.2160308 -0.044750202
0.05060417 0.07742688 -0.06564456 0.01997188 -0.13021186 -0.15344426 -0.12148841 -0.20665823
0.1318531 0.04279086 0.029357612 0.04006985 -0.012406468 -0.11448696 -0.08681959 -0.036953278
-0.057344712 -0.023932993 0.03422156 0.005789749 0.04204403 0.21134344 0.120013125 -0.08543358
0.12566823 -0.0564225 0.10251087 0.10865754 -0.085211724 -0.19529593 0.23825604 0.1717925
-0.22326171 0.10451606 -0.21398348 -0.18683085 -0.23733765 0.032931298 0.0145793855 -0.111950904
-0.23370266 0.056952775 -0.09319222 -0.0655978 0.122196466 0.16071129 0.1968768 0.03524956
0.048240066 -0.10207978 0.025496423 -0.19834292 0.22110453 -0.08952597 -0.05285728 0.03442514
-0.26029244 0.16403028 0.15263534 0.21355051 0.08751136 -0.044977784 0.02326271 0.22301367
0.1513605 -0.13960874 0.1758807 -0.10716618 0.15150738 -0.11286631 -0.20007609 -0.17287853
0.21428445 -0.21291816 0.12242982 0.19182044 -0.08502546 0.14157572 -0.08312932 0.18392204
0.042292066 -0.10780263 0.07160035 -0.27772748 0.07287771 -0.110500455 -0.24958071 -0.09929413
-0.26274475 0.0037145913 -0.056135982 -0.10326344 -0.044777244 -0.18846366 0.16327924 0.03189091
0.09690627 0.24591672 -0.07681176 0.14300328 -0.26692802 -0.045336664 0.02988725 0.04721745
0.16253924 -0.20139617 0.063614726 0.15475067 0.11969632 0.24757668 0.16245624 -0.16990267
0.12832098 -0.14123392 -0.2181961 0.06654618 -0.06253381 -0.05442965 0.22985603 -0.069052055
-0.22007546 -0.15646085 -0.14968023 0.10793358 0.050753146 0.020222813 -0.0029117763 0.17619136
0.1045762 -0.086968064 0.15304244 -0.1717 -0.17342126 -0.24558637 0.02462855 -0.021360934
0.14676738 -0.2062178 -0.04873833 0.13191476 -0.08142379 0.10662109 0.025381207 -0.030286372
0.017046392 0.1297048 0.112393856 -0.24719733 -0.18161047 0.12525642 0.21704301 -0.02399239
0.13657182 -0.09913495 -0.22315583 0.073216766 0.02435121 0.2204144 0.10364556 0.07133797
-0.10120598 -0.09438735 -0.15397596 0.053084683 0.11810955 -0.14699546 -0.0022322107 -0.27572253
0.21565604 0.11515674 0.12633952 -0.016031593 0.15980607 -0.21344703 0.051641494 -0.14878452
0.0022700727 0.24235079 -0.09376913 -0.24402264 0.18687999 -0.09958494 0.17690119 -0.24109727
-0.23256277 0.23363262 0.19291335 -0.001816541 0.12353137 0.043426275 0.19738683 0.1992393
-0.061837696 0.08452511 0.004785478 -0.17022322 -0.058419514 0.01083082 -0.17706396 0.18603313
-0.23108557 -0.1309062 -0.05915934 0.14437702 -0.05251792 -0.048282176 -0.20514095 -0.002554064
0.189022 0.064700365 0.24592528 0.06407479 -0.07021132 0.20495573 -0.095684975 -0.08620512
0.013082829 -0.055435836 -0.2270225 0.02724564 -0.24658912 -0.122261435 -0.05509925 0.016462633
0.054161288 -0.18866792 0.2030636 0.12990914 -0.049804028 0.0020970404 0.15334225 -0.1710212
0.15037945 0.01610303 0.2381087 -0.055317312 -0.24810901 0.089934975 -0.06827882 -0.058352172
-0.217872 0.17275026 -0.04728183 -0.014547557 0.20073602 0.10664192 -0.020715773 -0.1915673
00000000: 4f82 3f3e 8099 7a3b 4c1b a43d d897 c23d
00000010: 7047 ff3c d0e5 ca3d 2e37 5d3e fd4b 37bd
00000020: 5146 4f3d fc91 9e3d a870 86bd 119c a33c
00000030: 4256 05be 7e20 1dbe eace f8bd 379e 53be
00000040: 8004 073e 7845 2f3d 607f f03c 4820 243d
00000050: 8044 4bbc 2478 eabd 78ce b1bd 525c 17bd
00000060: 4ae2 6abd 200f c4bc e82b 0c3d efb7 bd3b
00000070: 5c36 2c3d 6a6a 583e 71c9 f53d cdf7 aebd
00000080: 2caf 003e 481b 67bd 38f1 d13d d887 de3d
00000090: 7c83 aebd a8fb 47be 64f9 733e 60ea 2f3e
000000a0: b89e 64be 840c d63d 7c1e 5bbe 9650 3fbe
000000b0: a408 73be f8e2 063d 60de 6e3c 8446 e5bd
000000c0: c04f 6fbe 5047 693d 90db bebd 2458 86bd
000000d0: 2442 fa3d 8091 243e 129a 493e d861 103d
000000e0: 6097 453d 340f d1bd e0dd d03c 681a 4bbe
000000f0: 3a69 623e 6459 b7bd e080 58bd 6001 0d3d
00000100: 0d45 85be 8ef7 273e 704c 1c3e fcac 5a3e
00000110: 2839 b33d a03a 38bd 7091 be3c b25d 643e
00000120: 3ffe 1a3e 98f5 0ebe 121a 343e f179 dbbd
00000130: c024 1b3e 7426 e7bd bfe0 4cbe 1207 31be
00000140: 626d 5b3e 3807 5abe 7cbc fa3d 946c 443e
00000150: d421 aebd 3af9 103e b43f aabd 0f56 3c3e
00000160: 723a 2d3d a0c7 dcbd 34a3 923d 4c32 8ebe
00000170: e940 953d 104e e2bd 1692 7fbe b95a cbbd
00000180: 7b86 86be 8070 733b d8ee 65bd c87b d3bd
00000190: 5868 37bd 9efc 40be ac32 273e 0ba0 023d
000001a0: cb76 c63d 98d1 7b3e 7c4f 9dbd 746f 123e
000001b0: caaa 88be f0b2 39bd 1bd6 f43c 1667 413d
000001c0: b070 263e cc3a 4ebe 7048 823d f676 1e3e
000001d0: 5823 f53d be84 7d3e ee5a 263e f7fa 2dbe
000001e0: 9366 033e a09f 10be cc6e 5fbe 5d49 883d
000001f0: ba11 80bd a0f1 5ebd 615f 6b3e 2a6b 8dbd
00000200: 765b 61be 4637 20be c645 19be 480c dd3d
00000210: 88e2 4f3d 50aa a53c 80d3 3ebb 826b 343e
00000220: 0c2c d63d 501c b2bd 28b7 1c3e 20d2 2fbe
00000230: 5895 31be fe7a 7bbe d0c1 c93c 20fd aebc
00000240: 304a 163e c22a 53be d8a1 47bd aa14 073e
00000250: 84c1 a6bd 285c da3d 40ec cf3c 201b f8bc
00000260: e0a4 8b3c 56d1 043e c02e e63d 4c21 7dbe
00000270: 18f8 39be 3843 003e 8640 5e3e b08b c4bc
00000280: 7cd9 0b3e 4407 cbbd f682 64be acf2 953d
00000290: 307c c73c 50b4 613e 2044 d43d a419 923d
000002a0: 1545 cfbd 284e c1bd e0ab 1dbe 536f 593d
000002b0: 6be3 f13d fa85 16be 484a 12bb 812b 8dbe
000002c0: f0d4 5c3e 4cd7 eb3d 265f 013e b054 83bc
000002d0: 34a4 233e dc91 5abe 0886 533d f85a 18be
000002e0: 80c5 143b ce2a 783e 080a c0bd 12e1 79be
000002f0: 785d 3f3e 30f3 cbbd 9625 353e 34e2 76be
00000300: ef24 6ebe 643d 6f3e 148b 453e 0019 eeba
00000310: 04fe fc3d c0df 313d c61f 4a3e 6305 4c3e
00000320: 8649 7dbd 801b ad3d 80cf 9c3b ff4e 2ebe
00000330: 4d49 6fbd c073 313c 4150 35be 787f 3e3e
00000340: b2a1 6cbe 460c 06be 1051 72bd 92d7 133e
00000350: 081d 57bd 88c3 45bd 7810 52be 1562 27bb
00000360: fc8e 413e a081 843d d6d3 7b3e a539 833d
00000370: f4ca 8fbd eadf 513e 7cf6 c3bd 4f8c b0bd
00000380: 5d59 563c b010 63bd 9678 68be 4032 df3c
00000390: dc81 7cbe 3464 fabd c0af 61bd a5dc 863c
000003a0: 3ad8 5d3d 2a32 41be e8ef 4f3e e706 053e
000003b0: 4fff 4bbd 806e 093b c005 1d3e 2e20 2fbe
000003c0: 12fd 193e 80ea 833c c4d2 733e 6894 62bd
000003d0: 4a10 7ebe d42f b83d c4d5 8bbd b002 6fbd
000003e0: d619 5fbe 72e5 303e 98aa 41bd e058 6ebc
000003f0: be8d 4d3e 1467 da3d 20b4 a9bc 382a 44be

net.2.bias f4 [16]
-0.06306422 -0.009203388 0.20054838 -0.1648542 -0.15351816 0.054263394 -0.40458393 0.23458628
0.09779057 0.17640185 0.10746309 -0.028598875 0.13297465 0.099062905 -0.13389124 0.2128843
00000000: d027 81bd cfc9 16bc 8e5c 4d3e 8acf 28be
00000010: dd33 1dbe 4b43 5e3d a025 cfbe 6337 703e
00000020: 6c46 c83d b0a2 343e 9c15 dc3d 3048 eabc
00000030: 822a 083e 7ee1 ca3d c91a 09be 58fe 593e

net.4.weight f4 [4, 16]
0.14819728 0.014367499 0.035060555 -0.07355377 0.047809806 0.16373177 -0.062156867 0.120032534
-0.045315027 0.08222875 0.10570974 0.04812911 -0.21618761 0.10447944 -0.10709883 0.030386627
-0.003480487 -0.029664598 -0.22313607 -0.022637278 0.0704754 -0.17099513 -0.06672411 0.13300672
0.20997086 -0.053305835 0.06572281 0.11109218 -0.23891075 0.01626885 -0.13694276 0.07467413
-0.017192442 -0.10599773 0.0833115 0.0049685836 -0.04958031 -0.07847138 0.08032538 -0.01747292
-0.20789567 0.015142709 0.103371546 0.065726995 -0.020800034 -0.089061595 0.13201398 0.114721864
0.08678378 -0.07980905 0.21185112 -0.16869321 0.17125648 0.13576154 0.054974668 0.024729412
-0.19680819 -0.014320254 0.06789214 0.11515546 0.10814103 -0.0232798 0.069364354 0.089652
00000000: 07c1 173e a965 6b3c a89b 0f3d 5ca3 96bd
00000010: 37d4 433d 4da9 273e 3398 7ebd 9ed3 f53d
00000020: 409c 39bd 8c67 a83d 597e d83d 0823 453d
00000030: 4960 5dbe 51f9 d53d a256 dbbd 60ed f83c
00000040: e218 64bb 2c03 f3bc c87d 64be d071 b9bc
00000050: 6855 903d 5919 2fbe a6a6 88bd ea32 083e
00000060: 9a02 573e 3857 5abd ae99 863d 4c84 e33d
00000070: 05a5 74be 4046 853c b93a 0cbe c0ee 983d
00000080: 2ad7 8cbc 5615 d9bd 389f aa3d 80cf a23b
00000090: b914 4bbd 9ab5 a0bd a281 a43d 5e23 8fbc
000000a0: 9ae2 54be 2019 783c 76b4 d33d e09b 863d
000000b0: d564 aabc ed65 b6bd ac2e 073e 4cf3 ea3d
000000c0: b2bb b13d ed72 a3bd 80ef 583e eabd 2cbe
000000d0: dc5d 2f3e 1305 0b3e 1e2d 613d 5695 ca3c
000000e0: 1688 49be 809f 6abc 090b 8b3d a0d6 eb3d
000000f0: 0b79 dd3d 47b5 bebc e60e 8e3d 789b b73d

net.4.bias f4 [4]
0.10720578 0.11904414 0.124925904 0.088182904
00000000: b48e db3d 6acd f33d 27d9 ff3d 3d99 b43d
